…
 the user via `torch.serialization.add_safe_globals`. We recommend you start setting `weights_only=True` for any use case where you don't have full control of the loaded file. Please open an issue on GitHub for any issues related to this experimental feature.
2026-03-29 10:47:53 |   ckpt = torch.load(weights, map_location=device)  # load checkpoint
2026-03-29 10:47:53 | Overriding model.yaml nc=80 with nc=4
2026-03-29 10:47:53 | 
2026-03-29 10:47:53 |                  from  n    params  module                                  arguments
2026-03-29 10:47:53 |   0                -1  1       928  models.common.Conv                      [3, 32, 3, 2, None, 1, LeakyReLU(negative_slope=0.1)]
2026-03-29 10:47:53 |   1                -1  1     18560  models.common.Conv                      [32, 64, 3, 2, None, 1, LeakyReLU(negative_slope=0.1)]
2026-03-29 10:47:53 |   2                -1  1      2112  models.common.Conv                      [64, 32, 1, 1, None, 1, LeakyReLU(negative_slope=0.1)]
2026-03-29 10:47:53 |   3                -2  1      2112  models.common.Conv                      [64, 32, 1, 1, None, 1, LeakyReLU(negative_slope=0.1)]
2026-03-29 10:47:53 |   4                -1  1      9280  models.common.Conv                      [32, 32, 3, 1, None, 1, LeakyReLU(negative_slope=0.1)]
2026-03-29 10:47:53 |   5                -1  1      9280  models.common.Conv                      [32, 32, 3, 1, None, 1, LeakyReLU(negative_slope=0.1)]
2026-03-29 10:47:53 |   6  [-1, -2, -3, -4]  1         0  models.common.Concat                    [1]
2026-03-29 10:47:53 |   7                -1  1      8320  models.common.Conv                      [128, 64, 1, 1, None, 1, LeakyReLU(negative_slope=0.1)]
2026-03-29 10:47:53 |   8                -1  1         0  models.common.MP                        []
2026-03-29 10:47:53 |   9                -1  1      4224  models.common.Conv                      [64, 64, 1, 1, None, 1, LeakyReLU(negative_slope=0.1)]
2026-03-29 10:47:53 |  10                -2  1      4224  models.common.Conv                      [64, 64, 1, 1, None, 1, LeakyReLU(negative_slope=0.1)]
2026-03-29 10:47:53 |  11                -1  1     36992  models.common.Conv                      [64, 64, 3, 1, None, 1, LeakyReLU(negative_slope=0.1)]
2026-03-29 10:47:53 |  12                -1  1     36992  models.common.Conv                      [64, 64, 3, 1, None, 1, LeakyReLU(negative_slope=0.1)]
2026-03-29 10:47:53 |  13  [-1, -2, -3, -4]  1         0  models.common.Concat                    [1]
2026-03-29 10:47:53 |  14                -1  1     33024  models.common.Conv                      [256, 128, 1, 1, None, 1, LeakyReLU(negative_slope=0.1)]
2026-03-29 10:47:53 |  15                -1  1         0  models.common.MP                        []
2026-03-29 10:47:53 |  16                -1  1     16640  models.common.Conv                      [128, 128, 1, 1, None, 1, LeakyReLU(negative_slope=0.1)]
2026-03-29 10:47:53 |  17                -2  1     16640  models.common.Conv                      [128, 128, 1, 1, None, 1, LeakyReLU(negative_slope=0.1)]
2026-03-29 10:47:53 |  18                -1  1    147712  models.common.Conv                      [128, 128, 3, 1, None, 1, LeakyReLU(negative_slope=0.1)]
2026-03-29 10:47:53 |  19                -1  1    147712  models.common.Conv                      [128, 128, 3, 1, None, 1, LeakyReLU(negative_slope=0.1)]
2026-03-29 10:47:53 |  20  [-1, -2, -3, -4]  1         0  models.common.Concat                    [1]
2026-03-29 10:47:53 |  21                -1  1    131584  models.common.Conv                      [512, 256, 1, 1, None, 1, LeakyReLU(negative_slope=0.1)]
2026-03-29 10:47:53 |  22                -1  1         0  models.common.MP                        []
2026-03-29 10:47:53 |  23                -1  1     66048  models.common.Conv                      [256, 256, 1, 1, None, 1, LeakyReLU(negative_slope=0.1)]
2026-03-29 10:47:53 |  24                -2  1     66048  models.common.Conv                      [256, 256, 1, 1, None, 1, LeakyReLU(negative_slope=0.1)]
2026-03-29 10:47:53 |  25                -1  1    590336  models.common.Conv                      [256, 256, 3, 1, None, 1, LeakyReLU(negative_slope=0.1)]
2026-03-29 10:47:53 |  26                -1  1    590336  models.common.Conv                      [256, 256, 3, 1, None, 1, LeakyReLU(negative_slope=0.1)]
2026-03-29 10:47:53 |  27  [-1, -2, -3, -4]  1         0  models.common.Concat                    [1]
2026-03-29 10:47:53 |  28                -1  1    525312  models.common.Conv                      [1024, 512, 1, 1, None, 1, LeakyReLU(negative_slope=0.1)]
2026-03-29 10:47:53 |  29                -1  1    131584  models.common.Conv                      [512, 256, 1, 1, None, 1, LeakyReLU(negative_slope=0.1)]
2026-03-29 10:47:53 |  30                -2  1    131584  models.common.Conv                      [512, 256, 1, 1, None, 1, LeakyReLU(negative_slope=0.1)]
2026-03-29 10:47:53 |  31                -1  1         0  models.common.SP                        [5]
2026-03-29 10:47:53 |  32                -2  1         0  models.common.SP                        [9]
2026-03-29 10:47:53 |  33                -3  1         0  models.common.SP                        [13]
2026-03-29 10:47:53 |  34  [-1, -2, -3, -4]  1         0  models.common.Concat                    [1]
2026-03-29 10:47:53 |  35                -1  1    262656  models.common.Conv                      [1024, 256, 1, 1, None, 1, LeakyReLU(negative_slope=0.1)]
2026-03-29 10:47:53 |  36          [-1, -7]  1         0  models.common.Concat                    [1]
2026-03-29 10:47:53 |  37                -1  1    131584  models.common.Conv                      [512, 256, 1, 1, None, 1, LeakyReLU(negative_slope=0.1)]
2026-03-29 10:47:53 |  38                -1  1     33024  models.common.Conv                      [256, 128, 1, 1, None, 1, LeakyReLU(negative_slope=0.1)]
2026-03-29 10:47:53 |  39                -1  1         0  torch.nn.modules.upsampling.Upsample    [None, 2, 'nearest']
2026-03-29 10:47:53 |  40                21  1     33024  models.common.Conv                      [256, 128, 1, 1, None, 1, LeakyReLU(negative_slope=0.1)]
2026-03-29 10:47:53 |  41          [-1, -2]  1         0  models.common.Concat                    [1]
2026-03-29 10:47:53 |  42                -1  1     16512  models.common.Conv                      [256, 64, 1, 1, None, 1, LeakyReLU(negative_slope=0.1)]
2026-03-29 10:47:53 |  43                -2  1     16512  models.common.Conv                      [256, 64, 1, 1, None, 1, LeakyReLU(negative_slope=0.1)]
2026-03-29 10:47:53 |  44                -1  1     36992  models.common.Conv                      [64, 64, 3, 1, None, 1, LeakyReLU(negative_slope=0.1)]
2026-03-29 10:47:53 |  45                -1  1     36992  models.common.Conv                      [64, 64, 3, 1, None, 1, LeakyReLU(negative_slope=0.1)]
2026-03-29 10:47:53 |  46  [-1, -2, -3, -4]  1         0  models.common.Concat                    [1]
2026-03-29 10:47:53 |  47                -1  1     33024  models.common.Conv                      [256, 128, 1, 1, None, 1, LeakyReLU(negative_slope=0.1)]
2026-03-29 10:47:53 |  48                -1  1      8320  models.common.Conv                      [128, 64, 1, 1, None, 1, LeakyReLU(negative_slope=0.1)]
2026-03-29 10:47:53 |  49                -1  1         0  torch.nn.modules.upsampling.Upsample    [None, 2, 'nearest']
2026-03-29 10:47:53 |  50                14  1      8320  models.common.Conv                      [128, 64, 1, 1, None, 1, LeakyReLU(negative_slope=0.1)]
2026-03-29 10:47:53 |  51          [-1, -2]  1         0  models.common.Concat                    [1]
2026-03-29 10:47:53 |  52                -1  1      4160  models.common.Conv                      [128, 32, 1, 1, None, 1, LeakyReLU(negative_slope=0.1)]
2026-03-29 10:47:53 |  53                -2  1      4160  models.common.Conv                      [128, 32, 1, 1, None, 1, LeakyReLU(negative_slope=0.1)]
2026-03-29 10:47:53 |  54                -1  1      9280  models.common.Conv                      [32, 32, 3, 1, None, 1, LeakyReLU(negative_slope=0.1)]
2026-03-29 10:47:53 |  55                -1  1      9280  models.common.Conv                      [32, 32, 3, 1, None, 1, LeakyReLU(negative_slope=0.1)]
2026-03-29 10:47:53 |  56  [-1, -2, -3, -4]  1         0  models.common.Concat                    [1]
2026-03-29 10:47:53 |  57                -1  1      8320  models.common.Conv                      [128, 64, 1, 1, None, 1, LeakyReLU(negative_slope=0.1)]
2026-03-29 10:47:53 |  58                -1  1     73984  models.common.Conv                      [64, 128, 3, 2, None, 1, LeakyReLU(negative_slope=0.1)]
2026-03-29 10:47:53 |  59          [-1, 47]  1         0  models.common.Concat                    [1]
2026-03-29 10:47:53 |  60                -1  1     16512  models.common.Conv                      [256, 64, 1, 1, None, 1, LeakyReLU(negative_slope=0.1)]
2026-03-29 10:47:53 |  61                -2  1     16512  models.common.Conv                      [256, 64, 1, 1, None, 1, LeakyReLU(negative_slope=0.1)]
2026-03-29 10:47:53 |  62                -1  1     36992  models.common.Conv                      [64, 64, 3, 1, None, 1, LeakyReLU(negative_slope=0.1)]
2026-03-29 10:47:53 |  63                -1  1     36992  models.common.Conv                      [64, 64, 3, 1, None, 1, LeakyReLU(negative_slope=0.1)]
2026-03-29 10:47:53 |  64  [-1, -2, -3, -4]  1         0  models.common.Concat                    [1]
2026-03-29 10:47:53 |  65                -1  1     33024  models.common.Conv                      [256, 128, 1, 1, None, 1, LeakyReLU(negative_slope=0.1)]
2026-03-29 10:47:53 |  66                -1  1    295424  models.common.Conv                      [128, 256, 3, 2, None, 1, LeakyReLU(negative_slope=0.1)]
2026-03-29 10:47:53 |  67          [-1, 37]  1         0  models.common.Concat                    [1]
2026-03-29 10:47:53 |  68                -1  1     65792  models.common.Conv                      [512, 128, 1, 1, None, 1, LeakyReLU(negative_slope=0.1)]
2026-03-29 10:47:53 |  69                -2  1     65792  models.common.Conv                      [512, 128, 1, 1, None, 1, LeakyReLU(negative_slope=0.1)]
2026-03-29 10:47:53 |  70                -1  1    147712  models.common.Conv                      [128, 128, 3, 1, None, 1, LeakyReLU(negative_slope=0.1)]
2026-03-29 10:47:53 |  71                -1  1    147712  models.common.Conv                      [128, 128, 3, 1, None, 1, LeakyReLU(negative_slope=0.1)]
2026-03-29 10:47:53 |  72  [-1, -2, -3, -4]  1         0  models.common.Concat                    [1]
2026-03-29 10:47:53 |  73                -1  1    131584  models.common.Conv                      [512, 256, 1, 1, None, 1, LeakyReLU(negative_slope=0.1)]
2026-03-29 10:47:53 |  74                57  1     73984  models.common.Conv                      [64, 128, 3, 1, None, 1, LeakyReLU(negative_slope=0.1)]
2026-03-29 10:47:53 |  75                65  1    295424  models.common.Conv                      [128, 256, 3, 1, None, 1, LeakyReLU(negative_slope=0.1)]
2026-03-29 10:47:53 |  76                73  1   1180672  models.common.Conv                      [256, 512, 3, 1, None, 1, LeakyReLU(negative_slope=0.1)]
2026-03-29 10:47:53 |  77      [74, 75, 76]  1     25250  models.yolo.IDetect                     [4, [[10, 13, 16, 30, 33, 23], [30, 61, 62, 45, 59, 119], [116, 90, 156, 198, 373, 326]], [128, 256, 512]]
2026-03-29 10:47:53 | /home/zeus/miniconda3/envs/cloudspace/lib/python3.12/site-packages/torch/functional.py:534: UserWarning: torch.meshgrid: in an upcoming release, it will be required to pass the indexing argument. (Triggered internally at ../aten/src/ATen/native/TensorShape.cpp:3595.)
…
